…
            "2":
                - 1
            "3":
                - 2
                - 13
                - 16
                - 22
                - 35
                - 41
            "4": 3.10.19
            "5": 0.26.1
            "10":
                - 20
            "12": 0.26.1
            "13": darwin-arm64
action_noise:
    value: None
action_space:
    value: Box(-1.0, 1.0, (1,), float32)
actor:
    value: |-
        Actor(
          (features_extractor): FlattenExtractor(
            (flatten): Flatten(start_dim=1, end_dim=-1)
          )
          (latent_pi): Sequential(
            (0): Linear(in_features=2, out_features=64, bias=True)
            (1): ReLU()
            (2): Linear(in_features=64, out_features=64, bias=True)
            (3): ReLU()
          )
          (mu): Sequential(
            (0): Linear(in_features=64, out_features=1, bias=True)
            (1): Hardtanh(min_val=-2.0, max_val=2.0)
          )
        )
algo:
    value: SAC
algo_kwargs:
    value:
        batch_size: 512
        buffer_size: 50000
        ent_coef: 0.1
        gamma: 0.9999
        gradient_steps: 32
        learning_rate: 0.0003
        learning_starts: 0
        policy_kwargs:
            log_std_init: -3.67
            net_arch:
                - 64
                - 64
        tau: 0.01
        train_freq: 32
        use_sde: true
batch_norm_stats:
    value: '[]'
batch_norm_stats_target:
    value: '[]'
batch_size:
    value: 512
buffer_size:
    value: 50000
critic:
    value: |-
        ContinuousCritic(
          (features_extractor): FlattenExtractor(
            (flatten): Flatten(start_dim=1, end_dim=-1)
          )
          (qf0): Sequential(
            (0): Linear(in_features=3, out_features=64, bias=True)
            (1): ReLU()
            (2): Linear(in_features=64, out_features=64, bias=True)
            (3): ReLU()
            (4): Linear(in_features=64, out_features=1, bias=True)
          )
          (qf1): Sequential(
            (0): Linear(in_features=3, out_features=64, bias=True)
            (1): ReLU()
            (2): Linear(in_features=64, out_features=64, bias=True)
            (3): ReLU()
            (4): Linear(in_features=64, out_features=1, bias=True)
          )
        )
critic_target:
    value: |-
        ContinuousCritic(
          (features_extractor): FlattenExtractor(
            (flatten): Flatten(start_dim=1, end_dim=-1)
          )
          (qf0): Sequential(
            (0): Linear(in_features=3, out_features=64, bias=True)
            (1): ReLU()
            (2): Linear(in_features=64, out_features=64, bias=True)
            (3): ReLU()
            (4): Linear(in_features=64, out_features=1, bias=True)
          )
          (qf1): Sequential(
            (0): Linear(in_features=3, out_features=64, bias=True)
            (1): ReLU()
            (2): Linear(in_features=64, out_features=64, bias=True)
            (3): ReLU()
            (4): Linear(in_features=64, out_features=1, bias=True)
          )
        )
device:
    value: cpu
ent_coef:
    value: 0.1
ent_coef_optimizer:
    value: None
ent_coef_tensor:
    value: tensor(0.1000)
env:
    value: <stable_baselines3.common.vec_env.dummy_vec_env.DummyVecEnv object at 0x314ece0b0>
env_id:
    value: MountainCarContinuous-v0
ep_info_buffer:
    value: deque([], maxlen=100)
ep_success_buffer:
…
